models/a2c_actor_gridenv.pth (torch, 29271 bytes, 6 tensors)

layer1.weight f4 [50, 25]
-0.011153288 0.32922855 0.21122612 -0.029477566 -0.0037846118 0.34065846 -0.19076362 -0.14428203
-0.08671699 0.0801451 0.12303348 -0.16550238 -0.07616367 -0.09628739 -0.043929026 0.2593054
-0.042905897 0.093142204 0.02444763 -0.14454928 -0.13857998 0.05183277 -0.15746388 0.011612415
0.023679592 0.13152103 0.12892781 0.10895319 0.011219695 -0.1266281 -0.027410418 -0.01626952
-0.1504738 0.0011247844 -0.16009423 0.00632295 -0.035425738 0.13563548 0.17275162 -0.025650457
0.15122803 -0.032352045 0.122619405 -0.006459996 0.02267602 -0.19415839 0.065568194 -0.078798965
-0.112961724 0.0641617 -0.15715349 0.06022967 -0.1610213 0.20995864 -0.023180634 -0.067627266
-0.09401786 -0.17805147 -0.02871184 -0.0900647 0.029289687 -0.11001964 -0.010840727 -0.08583019
0.13922714 -0.16542788 -0.08813038 -0.091047026 -0.064882964 -0.014725584 0.3237085 -0.17172955
0.31889468 -0.05749163 -0.0133776795 -0.00093612075 -0.10618992 0.21135521 0.036489174 0.14620076
-0.09781275 0.054333195 0.19326127 -0.118705295 -0.18655582 0.37981275 0.2153417 0.036465675
0.018359974 -0.097294286 0.028967932 -0.07315019 -0.13272616 -0.15378802 -0.06973386 -0.02476807
-0.093821526 0.0037371367 0.1901034 0.12181918 0.04593631 0.05708248 0.04593244 -0.12769917
0.098674595 -0.20947827 -0.16465394 0.24978888 0.20764276 0.12587564 -0.052765295 0.21924362
0.19387129 0.14883868 -0.17318879 0.15264478 -0.1735457 -0.1573764 -0.14156364 0.13079682
0.0235192 -0.20749132 -0.2323001 0.060125366 0.28690565 0.13102204 -0.1354626 0.088505186
-0.19656391 -0.10776633 -0.13243261 0.30820683 -0.13833068 -0.17941801 -0.13412355 0.18845132
0.033679016 0.30221364 -0.079980396 -0.085109584 0.30912787 0.18562897 0.02744328 0.18155567
0.16156302 -0.12539275 -0.13582805 -0.14640965 -0.068804696 0.038466558 -0.027594082 -0.1691283
0.10359616 -0.020195741 -0.014987198 0.057608325 -0.19040662 0.11878737 0.25694805 -0.020034626
-0.24780229 0.04096216 -0.21947774 0.03533332 -0.015917534 -0.24370284 0.15149496 -0.21730198
-0.19553906 -0.2094851 0.062487055 -0.01782672 0.18413815 -0.13350077 0.21201335 0.2719374
0.24038103 0.15959066 0.11401825 0.016656293 -0.11448657 -0.06992831 -0.0022164756 0.14072172
-0.0960342 -0.101005666 -0.11860534 -0.10180044 -0.07240777 0.19614308 0.16344093 -0.07411201
-0.13958159 -0.19696584 0.059525914 0.28157395 0.2200232 0.3516202 0.041687056 -0.08017576
0.35085702 -0.13594177 -0.16539724 -0.17667897 -0.10835244 -0.17257653 0.35057694 -0.00082963484
0.015134712 0.096989945 -0.1010017 -0.10970952 0.14765751 -0.094075374 0.28391793 0.13255437
-0.02305071 -0.13136217 0.10348818 0.16469628 -0.124488086 -0.1025654 -0.1832207 0.029207975
-0.076941766 -0.13862936 -0.0058337953 -0.16683677 0.043215297 0.04264194 0.2940298 0.032375947
-0.103982806 -0.19595928 -0.09667635 0.41435418 -0.09320238 0.037853897 -0.17037323 -0.09666832
-0.15062451 -0.18629085 0.28464216 0.20310073 0.11405086 -0.051319525 0.010847071 0.14420886
-0.059906766 -0.10213663 0.09602878 0.067437395 0.18310116 -0.21742827 0.14123142 -0.24313872
00000000: 48bc 36bc a590 a83e a94b 583e f07a f1bc
00000010: 4007 78bb c96a ae3e 8a57 43be abbe 13be
00000020: ad98 b1bd 1d23 a43d faf8 fb3d 7579 29be
00000030: b3fb 9bbd 5332 c5bd ecee 33bd adc3 843e
00000040: 18be 2fbd 57c1 be3d 6546 c83c ba04 14be
00000050: e9e7 0dbe 994e 543d 363e 21be 0042 3e3c
00000060: b4fb c13c 73ad 063e a705 043e da22 df3d
00000070: d0d2 373c ccaa 01be d08b e0bc a847 85bc
00000080: ce15 1abe 806d 933a beef 23be c030 cf3b
00000090: 941a 11bd 07e4 0a3e cde5 303e e820 d2bc
000000a0: 85db 1a3e 9483 04bd e21f fb3d 60ae d3bb
000000b0: 10c3 b93c 75d1 46be 9e48 863d 5a61 a1bd
000000c0: 7a58 e7bd 3667 833d d8ec 20be 63b3 763d
000000d0: c5e2 24be 66ff 563e 50e5 bdbc 2a80 8abd
000000e0: 708c c0bd 2053 36be 1835 ebbc d773 b8bd
000000f0: edf0 ef3c fa51 e1bd 4e9d 31bc bdc7 afbd
00000100: 8f91 0e3e ed65 29be b37d b4bd dd76 babd
00000110: 5ce1 84bd 9343 71bc 1fbd a53e dfd9 2fbe
00000120: 2a46 a33e 587c 6bbd 0e2e 5bbc 0066 75ba
00000130: 1a7a d9bd 806d 583e ac75 153d a7b5 153e
00000140: 0d52 c8bd 7c8c 5e3d 48e6 453e c31b f3bd
00000150: 7d08 3fbe d176 c23e 8982 5c3e 085d 153d
00000160: a867 963c 3a42 c7bd 284e ed3c c4cf 95bd
00000170: 5ee9 07be 9b7a 1dbe a0d0 8ebd 68e6 cabc
00000180: 8025 c0bd c0ea 743b 77aa 423e 567c f93d
00000190: b627 3c3d 52cf 693d a723 3c3d 92c3 02be
000001a0: e815 ca3d 7981 56be 0b9b 28be a8c8 7f3e
000001b0: 4ea0 543e 8be5 003e 6c20 58bd 6681 603e
000001c0: 3286 463e 2b69 183e 6758 31be ea4e 1c3e
000001d0: f7b5 31be 4727 21be 0ff6 10be 9aef 053e
000001e0: 56ab c03c 9b78 54be 14e0 6dbe 0446 763d
000001f0: 4ce5 923e a42a 063e b5b6 0abe 3542 b53d
00000200: 0d48 49be 98b4 dcbd 6a9c 07be 49cd 9d3e
00000210: 8fa6 0dbe 5bb9 37be af57 09be 62f9 403e
00000220: 02f3 093d bfbb 9a3e c3cc a3bd ef4d aebd
00000230: 0246 9e3e 8515 3e3e bbd0 e03c bbe9 393e
00000240: c770 253e f566 00be 8216 0bbe 69ec 15be
00000250: 7ae9 8cbd 1c8f 1d3d fc0c e2bc f82f 2dbe
00000260: 392a d43d 8a71 a5bc dd8c 75bc b5f6 6b3d
00000270: f4f9 42be cb46 f33d b28e 833e a81f a4bc
00000280: e2bf 7dbe f0c7 273d c6be 60be acb9 103d
00000290: 7d65 82bc 3d8d 79be 7f21 1b3e 6984 5ebe
000002a0: 643b 48be 4383 56be 6df2 7f3d 5709 92bc
000002b0: b68e 3c3e 6db4 08be 071a 593e 613b 8b3e
000002c0: 7226 763e bc6b 233e 6682 e93d c772 883c
000002d0: ef77 eabd 9336 8fbd 4a42 11bb 5b19 103e
000002e0: 94ad c4bd 0fdc cebd 5be7 f2bd c07c d0bd
000002f0: 864a 94bd bbd9 483e 0f5d 273e 0ac8 97bd
00000300: 7aee 0ebe 6ab1 49be 72d1 733d 762a 903e
00000310: c34d 613e 9007 b43e 0cc0 2a3d 3033 a4bd
00000320: 88a3 b33e 5234 0bbe e55d 29be 55eb 34be
00000330: e2e7 ddbd e7b7 30be d27e b33e da7b 59ba
00000340: 95f7 773c aaa2 c63d fbd9 cebd 63af e0bd
00000350: 8833 173e 97aa c0bd b15d 913e 55bc 073e
00000360: d8d4 bcbc ce83 06be 9cf1 d33d 24a6 283e
00000370: 9cf3 febd cf0d d2bd 359e 3bbe 9045 ef3c
00000380: a593 9dbd dbf4 0dbe 6c29 bfbb 42d7 2abe
00000390: 8602 313d 51a9 2e3d 138b 963e a49c 043d
000003a0: f0f4 d4bd 8da9 48be 40fe c5bd 3b26 d43e
000003b0: e4e0 bebd b00c 1b3d 5276 2ebe 0afa c5bd
000003c0: 503d 1abe 07c3 3ebe 9ebc 913e a3f9 4f3e
000003d0: 7f93 e93d 6c34 52bd eab7 313c 7dab 133e
000003e0: cc60 75bd 022d d1bd bdaa c43d 9e1c 8a3d
000003f0: df7e 3b3e 84a5 5ebe f89e 103e 5bf9 78be

layer1.bias f4 [50]
0.1387356 -0.1559073 0.04480542 -0.066385604 0.19940102 0.10673329 0.2400256 0.13194712
0.10244311 0.09933864 0.21073295 0.08572873 -0.18513589 0.1286943 0.16955675 0.2879045
0.19790033 0.28504083 -0.079402834 0.13265891 0.28282052 0.11116524 0.11437989 0.20926128
0.03490134 0.15381628 0.10849545 0.16055107 0.14572448 0.102732465 0.12080782 0.30962846
0.14493755 -0.011128038 -0.18734068 0.16351947 -0.1831706 0.22911657 0.111535184 0.16810441
0.23712483 0.027664946 0.08258289 -0.13970675 0.09266765 0.07665643 0.022379572 -0.15464604
0.07251969 0.23703933
00000000: b510 0e3e 2aa6 1fbe e385 373d 2df5 87bd
00000010: c82f 4c3e fc96 da3d 45c9 753e 251d 073e
00000020: b1cd d13d 0f72 cb3d 61ca 573e 8b92 af3d
00000030: 4394 3dbe 70c8 033e 49a0 2d3e 3868 933e
00000040: 62a6 4a3e dff0 913e f49d a2bd bdd7 073e
00000050: dacd 903e 9aaa e33d 0140 ea3d 9748 563e
00000060: b5f4 0e3d 0482 1d3e dd32 de3d 8067 243e
00000070: cc38 153e 6665 d23d 176a f73d 9f87 9e3e
00000080: 826a 143e 6052 36bc 3cd6 3fbe a671 273e
00000090: 1391 3bbe 899d 6a3e 8f6c e43d 9023 2c3e
000000a0: dad0 723e 99a1 e23c 3821 a93d 490f 0fbe
000000b0: 89c8 bd3d 0cfe 9c3d 5d55 b73c 885b 1ebe
000000c0: 3485 943d 70ba 723e

layer2.weight f4 [100, 50]
0.17603005 -0.059778802 0.11198836 0.02565901 0.029255385 0.08640366 -0.011660753 -0.035854965
0.09968021 0.15623127 -0.030721026 0.018773627 0.042153507 -0.096359536 0.16564357 -0.013263432
0.1972174 0.070089884 0.187171 -0.029260945 0.10542656 0.09978208 0.14581686 0.00470856
-0.10847515 0.09982954 0.019819854 0.21475618 0.00037963237 -0.07734155 0.05035 0.0044139307
0.115283124 -0.065718666 0.117107674 0.114320405 -0.1184181 0.22228616 0.22185999 0.023685683
0.21296819 0.1978023 -0.041061196 0.07358269 0.14132972 -0.075130686 0.12282301 0.1135474
0.14719956 0.09822238 -0.08640129 0.049914062 -0.15223782 0.021651454 0.14948262 0.05568869
0.05458523 0.020329406 0.038191028 -0.07612589 0.17050384 0.20560345 -0.05184617 0.24633825
0.0016273698 0.09035128 0.011900775 -0.11541114 0.10191559 0.059642024 0.1551434 0.16624796
-0.10897165 0.016912881 -0.10569465 -0.011501409 0.14479408 0.08668341 -0.058427725 0.15418494
-0.01877371 0.1537397 0.16061893 0.03264903 -0.039629355 0.23033932 0.11723293 -0.19896387
0.13982101 -0.26569265 0.123216935 -0.016681546 -0.16825019 0.12259943 0.31467733 0.015900299
-0.2026438 -0.022005273 -0.27304757 -0.040520016 -0.16579296 0.011162847 -0.20403226 0.095114626
0.3445834 0.34917468 0.0572822 -0.41040367 0.08021842 -0.052074775 0.27559868 0.21695997
0.040299535 0.21395218 -0.15629676 0.11026121 0.32438013 0.02751842 -0.15557338 -0.052283198
0.04058926 0.06581286 -0.2481113 0.19246064 -0.19026761 0.13760337 0.28977814 0.23427361
0.29135853 0.2055173 -0.022025459 0.18555334 0.27700898 0.22942133 -0.10946112 0.18226436
0.054451928 0.036845293 0.42119238 -0.16674717 0.0032025147 0.031158186 -0.13486363 -0.087263085
0.3358033 -0.13323034 -0.12209869 0.20130672 -0.07334148 0.06462165 -0.014948073 0.07112251
0.17147891 0.058396 -0.06863996 -0.2107454 -0.024242321 0.3137641 -0.2672732 0.1441086
-0.010699851 -0.21183673 -0.080092356 -0.06870143 0.106802836 0.17532374 0.030697087 0.15695636
0.23499727 0.14024428 0.19343631 -0.0033548586 0.2558912 0.03804741 0.15729196 0.1351196
-0.07873079 -0.09706541 -0.22919962 0.06886612 0.15955144 0.057868674 -0.1610788 -0.16456012
0.09387462 -0.17059867 -0.07550765 0.04375629 -0.1563525 0.117702365 0.11712975 -0.059723035
0.1662279 -0.08157896 -0.22886583 -0.01740624 0.13853967 0.11747065 0.25497365 0.10332669
-0.16359276 -0.0015062094 0.2855727 -0.13353351 -0.03354651 -0.07419726 0.20157087 0.21227527
-0.015271405 -0.09683079 -0.13188693 -0.24773191 -0.10826813 -0.10059622 -0.033330344 0.1780421
-0.26762405 -0.2054096 -0.11142328 -0.0038499509 0.11953092 0.0059741256 0.20910949 0.020829692
0.13172682 0.21895613 -0.28471562 0.013228168 -0.18414263 -0.0022178655 0.17763826 0.1480803
-0.38946316 -0.08021044 -0.07834863 -0.066993475 0.06500532 0.050435465 -0.09162086 0.124870874
0.1272902 0.060185358 0.13130549 -0.22461529 -0.19275391 -0.071605355 0.22556676 -0.016464809
0.093676575 0.09665236 -0.37557176 0.04996887 0.10113069 -0.008359122 0.12450778 -0.1075706
00000000: 3941 343e 9eda 74bd 275a e53d d832 d23c
00000010: fda8 ef3c 67f4 b03d be0c 3fbc a8dc 12bd
00000020: 2325 cc3d 17fb 1f3e a9aa fbbc 26cb 993c
00000030: 28a9 2c3d 2658 c5bd 789e 293e de4e 59bc
00000040: 5cf3 493e 498b 8f3d c1a9 3f3e a6b4 efbc
00000050: e1e9 d73d 8c5a cc3d 0451 153e 444a 9a3b
00000060: 3828 debd 6e73 cc3d 3f5d a23c 0be9 5b3e
00000070: 6509 c739 3f65 9ebd cd3b 4e3d bca2 903b
00000080: 8f19 ec3d 8297 86bd 26d6 ef3d d120 ea3d
00000090: 3085 f2bd fc9e 633e 442f 633e 7a08 c23c
000000a0: 5514 5a3e b08c 4a3e c92f 28bd 85b2 963d
000000b0: bdb8 103e 1ede 99bd a18a fb3d 8a8b e83d
000000c0: 7bbb 163e d128 c93d 29f3 b0bd b072 4c3d
000000d0: 3be4 1bbe 645e b13c f911 193e d319 643d
000000e0: c394 5f3d db89 a63c 326e 1c3d e4e7 9bbd
000000f0: 8f98 2e3e b689 523e a65c 54bd 1840 7c3e
00000100: 784d d53a 180a b93d 78fb 423c ad5c ecbd
00000110: 1fb9 d03d 324b 743d e9dd 1e3e e83c 2a3e
00000120: 872c dfbd e28c 8a3c 7076 d8bd 6870 3cbc
00000130: e644 143e 1287 b13d e951 6fbd a8e2 1d3e
00000140: 53cb 99bc f16d 1d3e 4a79 243e fdba 053d
00000150: 6452 22bd 12de 6b3e d217 f03d 2fbd 4bbe
00000160: 3d2d 0f3e de08 88be 2959 fc3d bda7 88bc
00000170: c749 2cbe 6915 fb3d 631d a13e 5841 823c
00000180: db81 4fbe 6744 b4bc e4cc 8bbe 51f8 25bd
00000190: a1c5 29be 60e4 363c d5ed 50be 75cb c23d
000001a0: 3c6d b03e 06c7 b23e bda0 6a3d 6e20 d2be
000001b0: 8e49 a43d 5c4c 55bd 451b 8d3e c12a 5e3e
000001c0: 2011 253d 4816 5b3e 420c 20be a1d0 e13d
000001d0: 2715 a63e 4f6e e13c a14e 1fbe e826 56bd
000001e0: ed40 263d e5c8 863d e310 7ebe 6714 453e
000001f0: 83d5 42be e6e7 0c3e cd5d 943e 6ce5 6f3e
00000200: f22c 953e 2173 523e bc6e b4bc b201 3e3e
00000210: 1fd4 8d3e 6ded 6a3e 272d e0bd 82a3 3a3e
00000220: fc08 5f3d 17eb 163d 87a6 d73e c5bf 2abe
00000230: 48e1 513b 743f ff3c b119 0abe fdb6 b2bd
00000240: 69ee ab3e 896d 08be e10e fabd 5923 4e3e
00000250: 0f34 96bd 5b58 843d c3e8 74bc aea8 913d
00000260: 2b98 2f3e a530 6f3d 1b93 8cbd a4cd 57be
00000270: d597 c6bc b0a5 a03e 08d8 88be 3491 133e
00000280: 6e4e 2fbc baeb 58be 7607 a4bd 56b3 8cbd
00000290: 72bb da3d 1188 333e 7578 fb3c 2bb9 203e
000002a0: 20a3 703e 329c 0f3e 2b14 463e 30dd 5bbb
000002b0: 2c04 833e 9ad7 1b3d 2511 213e cb5c 0a3e
000002c0: 9c3d a1bd 3bca c6bd 4eb3 6abe ae09 8d3d
000002d0: 7461 233e b407 6d3d d7f1 24be 7382 28be
000002e0: 5641 c03d 6bb1 2ebe c1a3 9abd cc39 333d
000002f0: df1a 20be f00d f13d b9e1 ef3d 24a0 74bd
00000300: a637 2a3e df12 a7bd ce5b 6abe 8897 8ebc
00000310: 58dd 0d3e 7494 f03d e88b 823e f29c d33d
00000320: dc84 27be 006c c5ba 9636 923e 02bd 08be
00000330: 1168 09bd bcf4 97bd 9868 4e3e b05e 593e
00000340: ea34 7abc 394f c6bd 5e0d 07be 6fad 7dbe
00000350: aebb ddbd 6405 cebd 6685 08bd ab50 363e
00000360: 0506 89be e556 52be e331 e4bd 754f 7cbb
00000370: a1cc f43d 99c2 c33b cc20 563e 08a3 aa3c
00000380: 65e3 063e 0936 603e 3fc6 91be f5ba 583c
00000390: e38f 3cbe 9c59 11bb cee6 353e 5da2 173e
000003a0: b767 c7be 5f45 a4bd 3f75 a0bd e033 89bd
000003b0: 8221 853d 6b95 4e3d b8a3 bbbd 4dbc ff3d
000003c0: 5d58 023e ec84 763d f274 063e 8d01 66be
000003d0: 4861 45be d4a5 92bd f9fa 663e 35e1 86bc
000003e0: 81d9 bf3d acf1 c53d f14a c0be 28ac 4c3d
000003f0: 9b1d cf3d b3f4 08bc effd fe3d fa4d dcbd

layer2.bias f4 [100]
0.03787027 0.07762537 0.052635144 0.15691328 0.11318595 0.20452532 0.15113197 -0.13939632
0.06432813 0.0060669715 0.130943 -0.081486076 -0.11400652 0.13239847 0.098561205 -0.13119629
0.025984006 0.024561003 -0.01908792 0.00024520344 -0.019924557 0.15193526 0.023823548 -0.14167133
0.09741562 0.103322275 -0.11312162 -0.082366675 -0.023442075 0.06080062 0.021100225 -0.012594707
0.16362157 0.17076457 0.035270173 0.14101826 0.017123125 -0.15133956 -0.1585234 -0.053675268
0.13705392 -0.1232187 -0.017206315 -0.117005296 0.046113037 0.041914817 0.1473062 0.020934682
-0.03214702 -0.12738594 0.19533995 0.123264804 -0.05095656 0.17274185 0.13426334 0.121692345
0.11331727 0.049569104 0.11514344 0.1958252 -0.0011233737 -0.14961047 0.16510627 -0.13683775
-0.12747417 -0.01731308 0.17289005 0.15018925 0.16947639 0.063869976 -0.07655782 -0.113414355
-0.0052083787 0.13308874 -0.123464905 0.019561991 -0.008878977 0.19449903 0.036971357 0.19676305
0.11900079 -0.035830744 -0.09062286 0.06302016 0.063816234 -0.08610733 0.16849929 0.05887016
0.09537683 -0.1489615 -0.10969287 -0.04680635 0.15234174 -0.022588402 -0.02812291 -0.09952959
0.016787773 0.0057503213 -0.056958586 -0.06710314
00000000: db1d 1b3d 0dfa 9e3d f397 573d e0ad 203e
00000010: 09ce e73d 166f 513e 57c2 1a3e e9bd 0ebe
00000020: 77be 833d 72cd c63b ec15 063e 2ce2 a6bd
00000030: 407c e9bd 7793 073e 75da c93d 5258 06be
00000040: 69dc d43c 2834 c93c 455e 9cbc a68e 8039
00000050: d338 a3bc eb94 1b3e 9a29 c33c 4a12 11be
00000060: d781 c73d a19a d33d 4fac e7bd dcaf a8bd
00000070: 9809 c0bc 120a 793d 61da ac3c 085a 4ebc
00000080: 6a8c 273e e8dc 2e3e 7577 103d 1767 103e
00000090: cc45 8c3c c2f8 1abe f553 22be 99da 5bbd
000000a0: dd57 0c3e 165a fcbd 42f4 8cbc 79a0 efbd
000000b0: 06e1 3c3d dfae 2b3d 70d7 163e 367f ab3c
000000c0: 98ac 03bd 7671 02be 3207 483e 4272 fc3d
000000d0: d3b7 50bd 3de3 303e 547c 093e d639 f93d
000000e0: e312 e83d f908 4b3d 53d0 eb3d 6786 483e
000000f0: 2b3e 93ba 7d33 19be 9e11 293e 321f 0cbe
00000100: 9788 02be 29d4 8dbc 170a 313e 36cb 193e
00000110: 388b 2d3e 43ce 823d 59ca 9cbd c945 e8bd
00000120: 0cab aabb 6a48 083e 2bdb fcbd 7840 a03c
00000130: 2179 11bc c12a 473e 476f 173d 417c 493e
00000140: b0b6 f33d 42c3 12bd 7a98 b9bd b710 813d
00000150: 16b2 823d 0a59 b0bd 148b 2c3e d621 713d
00000160: ed54 c33d 5d89 18be a8a6 e0bd 04b8 3fbd
00000170: 79ff 1b3e 500b b9bc 0462 e6bc 2bd6 cbbd
00000180: 8386 893c 316d bc3b 684d 69bd 5f6d 89bd

layer3.weight f4 [4, 100]
0.10243332 0.23925027 0.39745882 -0.04381146 -0.11171267 0.18511315 0.17574686 -0.0024055243
-0.06137144 0.28224745 0.19244653 0.083786905 -0.06280778 0.120366976 -0.042231195 -0.06748848
0.37623602 0.18171789 0.19178028 0.08098061 -0.169843 -0.17747307 -0.17244068 -0.023541097
0.0549813 -0.07540495 0.09957344 0.043195043 0.020794658 -0.11837138 0.024749093 0.09477875
0.16713884 -0.09729902 -0.1169242 -0.12579137 0.18535921 0.048944686 -0.049156442 0.04270196
-0.27079648 0.0036535882 -0.2024331 -0.15159182 0.2538014 -0.123705834 -0.2257803 0.10064974
-0.09419006 -0.054251757 0.27727136 -0.16185938 0.06205644 -0.094241485 -0.080512546 -0.060423948
-0.23097754 -0.11498955 -0.11421546 0.074662074 -0.04796612 0.06235114 0.26525944 -0.072403364
-0.015243529 0.03882576 0.1325935 0.26464126 0.21245635 0.058631055 0.046704818 -0.03154378
-0.29308486 -0.026231235 -0.021483738 -0.08051589 -0.030414294 -0.1685916 -0.1158144 0.17755114
-0.11253383 -0.09996715 0.055834595 -0.21669461 -0.09594181 0.044637866 0.007874585 -0.08789417
0.0024109618 -0.032517564 -0.0089940205 0.015152156 -0.09707164 -0.074560866 -0.08166043 -0.0029100627
-0.06357894 -0.21953319 0.043546386 -0.095124714 -0.05002604 -0.16097116 -0.29215112 0.1418766
0.28748438 0.19361567 0.08204312 -0.08802693 0.25459355 0.12227362 -0.27416652 -0.018029695
0.0069931597 0.15476157 -0.06723685 0.10840968 -0.18012433 -0.22271404 -0.11161537 -0.18204944
0.3801198 0.24579793 0.08268707 0.040634736 0.2560077 -0.024667356 -0.059969045 -0.045512557
0.09046444 -0.2560067 -0.18342099 -0.111241594 -0.11622259 0.18214332 -0.27715206 0.07992606
-0.33060405 0.08662948 -0.015374137 0.033241 0.18362565 -0.07075139 0.23990229 -0.15926595
-0.06295006 0.13436885 0.24716683 0.21815975 -0.18716162 -0.0044589043 0.036777258 0.24547398
0.25944865 0.13753594 0.23182373 0.27300948 0.1621921 0.012869381 0.23417014 0.16674261
0.21820606 0.03922188 -0.19056572 0.01197982 -0.003124729 -0.014587977 0.24708003 0.009721208
0.25423133 -0.30415377 0.07403174 0.06973371 0.11034309 0.26919165 -0.03223952 0.2280546
-0.018624578 -0.05871779 0.15924649 0.088076316 -0.195116 0.34287542 0.07068335 0.10323101
0.07692191 0.08557332 0.2553934 0.18285693 0.28680694 -0.038248725 -0.08193545 -0.07953936
0.1387559 0.06184358 -0.092470124 -0.047923993 -0.22971475 -0.10393237 -0.0104762465 0.25568736
0.032210745 0.09744659 0.031383216 -0.17587659 -0.045063417 0.03729219 -0.18591347 0.043841697
-0.22075087 -0.06745784 -0.11226926 0.024823708 -0.049457323 -0.18122938 0.042350397 0.03978713
-0.029246556 -0.115888566 -0.024202373 0.01408958 -0.3696488 -0.10107192 -0.2411152 -0.057464078
-0.23231639 0.07964332 -0.006463349 -0.060496904 0.024030734 -0.16015784 -0.111004174 -0.27757773
-0.034623515 -0.15721756 -0.0034654858 -0.2944202 -0.049559314 0.03599736 -0.041271504 0.031081932
-0.15995297 -0.083305456 -0.015585303 -0.0072075236 -0.13688165 -0.09149127 -0.13660283 -0.107501924
0.0018672585 0.026514806 -0.08413605 -0.051523477 -0.27008215 -0.17467432 -0.105934285 -0.14722039
00000000: 8fc8 d13d 06fe 743e b97f cb3e a573 33bd
00000010: 9dc9 e4bd 4d8e 3d3e fcf6 333e 00a6 1dbb
00000020: 9e60 7bbd bd82 903e b410 453e 7898 ab3d
00000030: 5ea1 80bd f682 f63d 9efa 2cbd 6637 8abd
00000040: 02a2 c03e 4114 3a3e 0d62 443e 29d9 a53d
00000050: 53eb 2dbe 80bb 35be 4a94 30be 42d9 c0bc
00000060: 1234 613d e96d 9abd 29ed cb3d 49ed 303d
00000070: 8f59 aa3c b26c f2bd 9cbe ca3c 5c1b c23d
00000080: 7226 2b3e b544 c7bd f475 efbd 74cf 00be
00000090: cece 3d3e 397a 483d 4458 49bd 40e8 2e3d
000000a0: d6a5 8abe 0a71 6f3b 9f4a 4fbe e33a 1bbe
000000b0: 42f2 813e 7c59 fdbd f332 67be 7321 ce3d
000000c0: b8e6 c0bd 1737 5ebd 83f6 8d3e 77be 25be
000000d0: e52e 7e3d ae01 c1bd c3e3 a4bd 1a7f 77bd
000000e0: 6085 6cbe a47f ebbd cce9 e9bd 6ee8 983d
000000f0: 1f78 44bd e963 7f3d 16d0 873e 3748 94bd
00000100: ffbf 79bc c307 1f3d 97c6 073e 0f7f 873e
00000110: 288e 593e 1e27 703d 8d4d 3f3d 0d34 01bd
00000120: 380f 96be e3e2 d6bc aafe afbc 84e5 a4bd
00000130: 6627 f9bc 47a3 2cbe 1a30 edbd f7cf 353e
00000140: 2378 e6bd 94bb ccbd d1b2 643d 31e5 5dbe
00000150: 247d c4bd 32d6 363d 6704 013c dc01 b4bd
00000160: 3a01 1e3b 2331 05bd a85b 13bc c040 783c
00000170: 7fcd c6bd 5eb3 98bd 953d a7bd c0b6 3ebb
00000180: ad35 82bd 4fcd 60be b25d 323d bfd0 c2bd
00000190: 1be8 4cbd a0d5 24be d594 95be 1948 113e
000001a0: 2731 933e 3043 463e 3906 a83d 7747 b4bd
000001b0: 165a 823e 976a fa3d 8e5f 8cbe 03b3 93bc
000001c0: e026 e53b d179 1e3e 79b3 89bd e505 de3d
000001d0: 8372 38be 260f 64be 9996 e4bd 2b6b 3abe
000001e0: 109f c23e 74b2 7b3e d757 a93d 9c70 263d
000001f0: 7113 833e 3213 cabc 1aa2 75bd 606b 3abd
00000200: 6c45 b93d 4f13 83be b6d2 3bbe a2d2 e3bd
00000210: 1c06 eebd c783 3a3e e0e6 8dbe 46b0 a33d
00000220: ef44 a9be cc6a b13d cee3 7bbc b727 083d
00000230: 5d08 3c3e 1be6 90bd f2a8 753e 9d16 23be
00000240: f6eb 80bd fd97 093e 4d19 7d3e 4565 5f3e
00000250: 4ca7 3fbe 001c 92bb c0a3 163d 885d 7b3e
00000260: 74d6 843e 39d6 0c3e 3363 6d3e e6c7 8b3e
00000270: b015 263e 19da 523c 4cca 6f3e 93be 2a3e
00000280: 6971 5f3e 1fa7 203d a923 43be 0247 443c
00000290: 41c8 4cbb 6902 6fbc 8c02 7d3e b445 1f3c
000002a0: 9c2a 823e 0bba 9bbe f49d 973d 8cd0 8e3d
000002b0: 8ffb e13d 7dd3 893e 960d 04bd 2587 693e
000002c0: 9292 98bc 1182 70bd 8311 233e 5b61 b43d
000002d0: 7dcc 47be 5e8d af3e 6fc2 903d c86a d33d
000002e0: 3c89 9d3d 1141 af3d ecc2 823e d93e 3b3e
000002f0: 5cd8 923e b2aa 1cbd c6cd a7bd 88e5 a2bd
00000300: 0716 0e3e b24f 7d3d fa60 bdbd f34b 44bd
00000310: 583a 6bbe 7fda d4bd 90a4 2bbc 74e9 823e
00000320: 6aef 033d 1492 c73d b08b 003d fe18 34be
00000330: 6b94 38bd b2bf 183d 1a60 3ebe 5a93 333d
00000340: 840c 62be 5627 8abd 6ded e5bd 175b cb3c
00000350: c393 4abd 3294 39be 9c77 2d3d d4f7 223d
00000360: 7996 efbc fc56 edbd 0e44 c6bc fbd7 663c
00000370: 9c42 bdbe cbfe cebd e7e6 76be 745f 6bbd
00000380: 59e4 6dbe 091c a33d 80ca d3bb 9acb 77bd
00000390: 1adc c43c 6b00 24be 2856 e3bd ab1e 8ebe
000003a0: 63d1 0dbd a4fd 20be 341d 63bb 3fbe 96be
000003b0: b5fe 4abd f871 133d 4f0c 29bd 899f fe3c
000003c0: b6ca 23be 0d9c aabd 8059 7fbc 172d ecbb
000003d0: b42a 0cbe c65f bbbd 9de1 0bbe f829 dcbd
000003e0: ccbe f43a 9435 d93c 854f acbd 480a 53bd
000003f0: 3548 8abe d3dd 32be 13f4 d8bd f1c0 16be

layer3.bias f4 [4]
0.028094636 0.0065049147 -0.07994084 -0.03749023
00000000: b926 e63c 2e27 d53b 06b8 a3bd 5b8f 19bd
