models/a2c_critic_gridenv.pth (torch, 28119 bytes, 5 tensors)

layer1.weight f4 [50, 25]
0.30983478 0.22554553 -0.06742094 0.20336986 0.21009855 -0.1792062 -0.008670907 0.16676047
0.029952135 0.18037567 -0.023521172 0.37875876 0.10012363 -0.09785619 0.10473764 -0.10274953
0.080033705 -0.14648154 -0.15761852 0.03496129 -0.029504916 0.06198571 -0.16478594 0.09219243
-0.17699298 0.28538474 0.09336772 -0.15880032 -0.068910606 0.120081745 0.25972652 0.059471563
0.043627474 -0.049121313 0.1825522 0.15078595 0.24351028 0.16157785 -0.046722323 0.11446933
-0.19766755 0.14305042 0.23239355 -0.1127489 -0.07596093 0.106964745 0.03533438 -0.1619853
0.010126516 0.06367847 0.24589446 0.16457936 0.1407184 -0.04877139 0.1327951 -0.19210272
-0.12553096 0.016082836 -0.056392327 0.032710593 -0.17644373 -0.05048473 -0.05428438 0.029186249
-0.11717027 -0.009804888 0.072151795 -0.03564711 -0.079195455 0.15525344 -0.0032770792 0.10009633
-0.037678756 -0.122719124 -0.1987671 -0.14595641 -0.057915956 -0.02826904 -0.14242879 -0.20006841
0.10691798 0.047261946 -0.17282638 0.12775125 0.017683161 0.09168745 -0.1397398 0.1999634
0.027216032 0.09327865 -0.008624219 0.14922936 0.018298151 0.057767827 0.02666994 0.08033434
0.10795376 0.3422345 0.12906979 -0.14695291 -0.13821626 0.19242924 0.10841185 -0.024249623
0.2385495 0.05243141 -0.1250737 0.041247327 -0.0022186933 0.1431569 0.062206004 0.060244463
-0.17126384 -0.12938654 0.1494534 -0.12124181 0.01560089 -0.005380833 -0.15476708 0.013614551
-0.11034856 -0.03624828 -0.11766874 0.18106867 -0.11376061 -0.07839031 0.035735965 0.13895273
-0.17244278 -0.018336786 0.036645968 -0.12158239 -0.16544183 -0.18320699 -0.022976443 0.24045376
-0.17293759 -0.09789729 0.099297896 -0.19002426 -0.096050374 -0.011290386 -0.117428 0.21135786
0.19690876 0.30589762 0.32003942 -0.11933 -0.018178418 0.19579688 0.18487503 0.114336945
-0.19755828 0.09124855 0.17122668 0.1673541 0.12057194 -0.026135232 -0.05344038 0.20993488
-0.12886974 0.17634493 -0.052893847 -0.011328071 0.17298941 0.294992 0.00018194318 -0.05822353
0.08488266 -0.073439404 -0.12373054 -0.06745248 -0.048295498 0.13019718 0.04307475 0.19480221
-0.09740349 0.09121464 0.1946605 0.1407538 0.21018831 0.007927441 0.09804817 0.14054745
0.18208085 0.2354456 0.10633633 0.2404301 -0.07220855 0.14515388 -0.22295508 0.023815513
0.22429258 0.0062800464 -0.050619494 -0.034333523 -0.05711293 -0.20263305 -0.11051738 -0.17722864
-0.088567406 0.08877318 -0.065246 0.22444569 -0.18777294 -0.018034246 0.022367217 -0.0547469
0.11025003 0.002397544 0.11228177 0.09042041 0.054191153 0.00078222156 0.04114764 -0.04234481
-0.1098208 0.07728998 0.17728975 0.16181335 0.12891705 0.30796066 0.31854007 0.01982741
-0.0024616544 -0.19687238 0.14201225 0.04542087 -0.045388848 0.271228 0.12469625 0.07256831
0.16158772 0.13490628 -0.13576216 0.24068531 -0.13237762 -0.17253485 0.08245601 0.14877133
0.15779455 0.17079346 0.14050122 -0.18278514 -0.174866 -0.04711756 0.042137947 -0.03292705
-0.1098429 -0.040479664 -0.081864886 -0.039103538 -0.1899191 0.1242874 -0.10233336 0.17137899
00000000: aaa2 9e3e 68f5 663e fd13 8abd 3040 503e
00000010: 1324 573e d581 37be 6b10 0ebc 42c3 2a3e
00000020: 2e5e f53c 66b4 383e 79af c0bc abec c13e
00000030: 9e0d cd3d d368 c8bd b080 d63d 586e d2bd
00000040: b6e8 a33d 42ff 15be c066 21be 9233 0f3d
00000050: 4bb4 f1bc bae4 7d3d a5bd 28be 62cf bc3d
00000060: a63d 35be f31d 923e 9337 bf3d 8d9c 22be
00000070: 0121 8dbd 6bed f53d e0fa 843e 7498 733d
00000080: b9b2 323d 6e33 49bd f7ee 3a3e a267 1a3e
00000090: c25a 793e aa74 253e e85f 3fbd e56e ea3d
000000a0: 5d69 4abe cf7b 123e 93f8 6d3e e5e8 e6bd
000000b0: 6791 9bbd 5510 db3d c8ba 103d 79df 25be
000000c0: b0e9 253c dc69 823d c2cb 7b3e 7e87 283e
000000d0: 7c18 103e 82c4 47bd 70fb 073e 93b6 44be
000000e0: 308b 00be 27c0 833c a4fb 66bd 8bfb 053d
000000f0: aaad 34be 14c9 4ebd 4c59 5ebd 0018 ef3c
00000100: f7f6 efbd aea4 20bc 52c4 933d b402 12bd
00000110: 3a31 a2bd c2fa 1e3e 44c4 56bb 4eff cc3d
00000120: 0a55 1abd 2a54 fbbd 9a89 4bbe 9975 15be
00000130: 4839 6dbd 7994 e7bc dad8 11be bcde 4cbe
00000140: d0f7 da3d be95 413d 66f9 30be 39d1 023e
00000150: 47dc 903c a1c6 bb3d f317 0fbe 35c3 4c3e
00000160: 28f4 de3c e008 bf3d 994c 0dbc 95cf 183e
00000170: 01e6 953c f59d 6c3d eb7a da3c 5586 a43d
00000180: dc16 dd3d 5c39 af3e df2a 043e d37a 16be
00000190: 9088 0dbe 2c0c 453e 0807 de3d 25a7 c6bc
000001a0: 5246 743e 51c2 563d 5213 00be f5f2 283d
000001b0: 7f67 11bb b997 123e b9cb 7e3d e6c2 763d
000001c0: ca5f 2fbe e87d 04be 500a 193e a04d f8bd
000001d0: e09a 7f3c b351 b0bb 437b 1ebe 910f 5f3c
000001e0: 6dfe e1bd 1479 14bd 4ffc f0bd 116a 393e
000001f0: 53fb e8bd 198b a0bd e05f 123d a049 0e3e
00000200: d794 30be 0737 96bc 151a 163d 3000 f9bd
00000210: 9569 29be 9d9a 3bbe 1839 bcbc 8339 763e
00000220: 8d16 31be 607e c8bd b25c cb3d b895 42be
00000230: 0fb6 c4bd 50fb 38bc 177e f0bd 326e 583e
00000240: 73a2 493e 9d9e 9c3e 35dc a33e 4963 f4bd
00000250: e8ea 94bc fa7e 483e e14f 3d3e 7d29 ea3d
00000260: b84c 4abe 85e0 ba3d 0c56 2f3e e05e 2b3e
00000270: 6cee f63d 8e19 d6bc 4de4 5abd 2bf9 563e
00000280: 6ef6 03be c493 343e 38a7 58bd 6099 39bc
00000290: 2324 313e 3109 973e 00c8 3e39 cc7b 6ebd
000002a0: f6d6 ad3d 6667 96bd 7066 fdbd 8724 8abd
000002b0: 80d1 45bd 6952 053e 266f 303d 3b7a 473e
000002c0: 7b7b c7bd bece ba3d 1555 473e c421 103e
000002d0: 9b3b 573e 19e2 013c 7bcd c83d aceb 0f3e
000002e0: 6773 3a3e a718 713e ddc6 d93d 4f33 763e
000002f0: 14e2 93bd 38a3 143e 564e 64be c018 c33c
00000300: f4ac 653e d9c8 cd3b 6356 4fbd 4fa1 0cbd
00000310: 3fef 69bd 0a7f 4fbe f056 e2bd 6d7b 35be
00000320: d462 b5bd b7ce b53d b29f 85bd 17d5 653e
00000330: 8d47 40be 8ebc 93bc 743b b73c 493e 60bd
00000340: c5ca e13d 1d20 1d3b fcf3 e53d 562e b93d
00000350: 8bf7 5d3d 000e 4d3a 6e8a 283d c071 2dbd
00000360: bae9 e0bd 364a 9e3d 728b 353e 66b2 253e
00000370: d502 043e 05ad 9d3e af17 a33e 186d a23c
00000380: b553 21bb ea98 49be a96b 113e 3c0b 3a3d
00000390: a8e9 39bd 65de 8a3e bf60 ff3d b29e 943d
000003a0: 4077 253e df24 0a3e 3c05 0bbe 3676 763e
000003b0: 008e 07be faac 30be b2de a83d 8357 183e
000003c0: e594 213e 7be4 2e3e 8ddf 0f3e 072c 3bbe
000003d0: 1310 33be 58fe 40bd d798 2c3d 84de 06bd
000003e0: 50f5 e0bd 01ce 25bd c7a8 a7bd 082b 20bd
000003f0: 277a 42be 648a fe3d 2794 d1bd f97d 2f3e

layer1.bias f4 [50]
0.10951137 0.12508386 -0.010317182 0.28432345 0.07096038 0.09507509 0.042081397 0.14789781
0.5510148 -0.019789528 0.0030982941 -0.03809717 0.48992056 0.3938129 -0.1700715 0.07580571
-0.14493892 -0.10298526 0.063440405 -0.1889803 0.48546606 0.4056054 -0.20516512 0.4298322
-0.19177495 0.40614474 -0.18893649 -0.14294598 0.14916857 0.07612175 -0.0042069727 0.0701619
0.52665883 0.038653444 0.19008997 0.2468538 0.44178814 0.114076935 0.5130549 0.14969465
-0.028529193 -0.018799772 0.5405884 0.05867547 0.4386973 0.5420451 0.11350413 0.3774457
-0.13566417 0.15811525
00000000: 7f47 e03d fc15 003e 6609 29bc d892 913e
00000010: ad53 913d bbb6 c23d 8b5d 2c3d 8672 173e
00000020: 4e0f 0d3f a61d a2bc c00c 4b3b c70b 1cbd
00000030: ded6 fa3e d8a1 c93e 3927 2ebe 0640 9b3d
00000040: de6a 14be f0e9 d2bd 0bed 813d 0d84 41be
00000050: 028f f83e 83ab cf3e ce16 52be f712 dc3e
00000060: a760 44be 34f2 cf3e 9178 41be 6e60 12be
00000070: a5bf 183e b8e5 9b3d a5da 89bb 0bb1 8f3d
00000080: 1dd3 063f 1353 1e3d f2a6 423e 3ec7 7c3e
00000090: 0e32 e23e 2ba1 e93d 9157 033f 8e49 193e
000000a0: 0eb6 e9bc fb01 9abc 0064 0a3f b155 703d
000000b0: ef9c e03e 78c3 0a3f da74 e83d 9040 c13e
000000c0: 8ceb 0abe f7e8 213e

layer2.weight f4 [100, 50]
0.07632893 0.14970799 0.19321735 0.29480702 0.1163403 0.38335225 0.13644853 -0.048712537
0.29111573 0.1663133 0.23321763 0.17544371 0.41900495 0.34441906 0.13489895 -0.11717265
-0.009169059 -0.01979629 0.11217813 0.022712972 0.2857627 0.42601845 0.08505468 0.23469286
0.1320021 0.42932525 0.08460931 -0.15039483 0.32792783 0.2553764 -0.0856946 0.18413635
0.44070894 0.1189008 0.22063887 0.3195238 0.3774637 0.061600212 0.13976488 0.1797205
-0.09483925 0.09698727 0.38418317 0.23016572 0.4223057 0.3672188 0.113614306 0.20893948
-0.07120581 -0.038025197 0.08714543 0.10087686 -0.060661744 -0.049786635 0.16994062 -0.06517361
0.030257158 0.032301284 -0.09600025 0.0055628745 0.05685939 0.07559668 -0.043788463 -0.001100798
-0.09706555 0.12863313 -0.07213483 0.10687511 0.15756841 -0.09389355 -0.021748513 -0.06371076
0.12429785 -0.04193272 -0.10325666 -0.17906612 -0.0002492774 0.059799485 0.052523345 0.1709263
0.119345866 0.13752253 0.05167467 0.09580662 0.09825363 -0.04037529 -0.009219417 0.068562835
-0.14586158 0.033049345 0.23959793 -0.14404544 -0.1422524 0.19841807 -0.1005801 -0.03708222
-0.16902465 0.061583195 0.1199643 -0.02134938 0.09039432 0.005493163 0.10759709 -0.043346286
0.0047764764 -0.04007625 0.113337606 0.10629495 0.010016319 -0.00740423 0.015085061 -0.0048794537
-0.12871197 -0.00044065228 -0.010344886 0.0049118297 -0.119268894 -0.057859864 0.15495266 0.093284935
-0.052646365 -0.078263044 -0.060199395 0.118202075 -0.06463629 -0.26437965 0.007732193 0.043921586
0.049067862 0.09320009 0.045983866 -0.0896397 0.021744808 0.19859983 0.11712799 -0.021154279
-0.046700295 0.1344971 -0.114522405 0.09028214 0.217051 -0.01937207 -0.112798765 0.075141795
0.007558189 -0.18706909 -0.106870845 -0.106749505 0.105743684 0.10465052 0.03136726 -0.06710309
0.21767764 -0.09942236 -0.017529951 -0.0883746 0.037480175 0.1942525 -0.014046294 0.08838958
0.1370525 0.04043865 0.017742895 -0.060546517 -0.03065627 0.20542394 0.08184563 0.026867505
0.14420159 0.0353122 -0.115718335 -0.03898918 0.05596687 0.09664289 -0.09032951 -0.056620337
-0.042747878 -0.06688137 -0.100700684 0.15600574 -0.034277093 -0.08734545 0.041597385 0.077239215
-0.06272526 -0.022413045 -0.13657115 0.015845994 -0.17442335 0.09406877 0.040985048 -0.038849328
-0.118434355 0.19017708 -0.070287436 0.013738292 0.103071 -0.033203475 0.028231967 -0.0068540294
-0.013538662 0.0682139 -0.091706805 0.010374024 0.14139874 -0.07562927 -0.11707945 0.01220234
0.061505135 0.19457957 -0.005195274 -0.20026132 0.05827498 0.06059997 -0.13689375 -0.056793585
-0.06627072 -0.066421054 -0.022946699 -0.08621389 -0.09845544 -0.08321634 0.0039722174 0.039773814
0.053946793 -0.13732287 0.08204468 0.12911168 -0.033201173 0.074443035 0.04903144 -0.09209099
0.008780143 0.1422679 0.03946311 -0.14029919 -0.06618597 0.106510185 -0.14393127 0.12720992
0.102404766 -0.121774875 0.08748436 0.13650948 -0.16263713 0.03179981 0.0046934937 0.078565314
0.13672693 0.029905722 -0.11377266 0.03888956 0.11992694 -0.08662208 -0.058909044 0.019866392
00000000: 5852 9c3d 0d4d 193e c5da 453e f2f0 963e
00000010: d343 ee3d bf46 c43e 2ab9 0b3e cc86 47bd
00000020: 1f0d 953e 094e 2a3e 9ad0 6e3e 84a7 333e
00000030: d187 d63e b257 b03e f322 0a3e 37f8 efbd
00000040: d239 16bc d42b a2bc a6bd e53d 8e10 ba3c
00000050: 7d4f 923e 171f da3e 2631 ae3d 5353 703e
00000060: 8f2b 073e 85d0 db3e a547 ad3d 1a01 1abe
00000070: 28e6 a73e b2c0 823e a780 afbd 3d8e 3c3e
00000080: 9aa4 e13e 4382 f33d 28ef 613e a098 a33e
00000090: ec42 c13e 8150 7c3d 861e 0f3e a708 383e
000000a0: 153b c2bd 43a1 c63d a8b3 c43e 90b0 6b3e
000000b0: 7438 d83e 1a04 bc3e 9eae e83d 3bf4 553e
000000c0: 5ad4 91bd 4fc0 1bbd 4e79 b23d 8798 ce3d
000000d0: 7378 78bd 12ed 4bbd ea04 2e3e be79 85bd
000000e0: dcdd f73c 5a4e 043d c79b c4bd c648 b63b
000000f0: 64e5 683d 6fd2 9a3d 885b 33bd a748 90ba
00000100: 4eca c6bd 67b8 033e 6dbb 93bd 56e1 da3d
00000110: 9d59 213e 434b c0bd f029 b2bc c97a 82bd
00000120: df8f fe3d a5c1 2bbd 3a78 d3bd 1c5d 37be
00000130: 72b1 82b9 4ef0 743d b822 573d 4e07 2f3e
00000140: 9b6b f43d b5d2 0c3e d2a8 533d 4336 c43d
00000150: 3339 c93d 8f60 25bd 0a0d 17bc ac6a 8c3d
00000160: bd5c 15be c05e 073d 2959 753e a680 13be
00000170: 9daa 11be 1b2e 4b3e f1fc cdbd 87e3 17bd
00000180: cc14 2dbe a93e 7c3d d8af f53d e5e4 aebc
00000190: a820 b93d feff b33b dd5b dc3d e08b 31bd
000001a0: fd83 9c3b fe26 24bd 8c1d e83d 2bb1 d93d
000001b0: 7d1b 243c 2f9f f2bb 5527 773c d3e3 9fbb
000001c0: 12cd 03be 5907 e7b9 997d 29bc 6af3 a03b
000001d0: 4043 f4bd 77fe 6cbd e9ab 1e3e 2c0c bf3d
000001e0: b7a3 57bd 6048 a0bd a493 76bd ee13 f23d
000001f0: 0860 84bd c55c 87be 565e fd3b 1fe7 333d
00000200: 62fb 483d b0df be3d 9459 3c3d 0595 b7bd
00000210: 2b22 b23c c15d 4b3e cde0 ef3d bd4b adbc
00000220: cf48 3fbd 9cb9 093e b98a eabd d8e5 b83d
00000230: 9e42 5e3e 2db2 9ebc 0a03 e7bd f1e3 993d
00000240: afaa f73b 0a8f 3fbe 1adf dabd 7c9f dabd
00000250: 2590 d83d 0353 d63d f57a 003d 586d 89bd
00000260: e3e6 5e3e f39d cbbd f99a 8fbc befd b4bd
00000270: d084 193d 21ea 463e 6d22 66bc 9905 b53d
00000280: 7e57 0c3e ffa2 253d 8c59 913c a0ff 77bd
00000290: dc22 fbbc a75a 523e af9e a73d 3e19 dc3c
000002a0: 95a9 133e 87a3 103d bcfd ecbd 1eb3 1fbd
000002b0: 843d 653d b5ec c53d aefe b8bd baea 67bd
000002c0: 6618 2fbd 1af9 88bd 293c cebd f8bf 1f3e
000002d0: 2366 0cbd 2ce2 b2bd 0562 2a3d 982f 9e3d
000002e0: 1a76 80bd 909b b7bc 4fd9 0bbe 75cf 813c
000002f0: 099c 32be 21a7 c03d f0df 273d 7920 1fbd
00000300: b68d f2bd c8bd 423e dcf2 8fbd 9316 613c
00000310: e316 d33d 5e00 08bd ba46 e73c c497 e0bb
00000320: 44d1 5dbc bbb3 8b3d c7d0 bbbd cff7 293c
00000330: d5ca 103e 85e3 9abd 5ac7 efbd 53ec 473c
00000340: cfec 7b3d de3f 473e 1e3d aabb 4e11 4dbe
00000350: bfb1 6e3d ad37 783d e02d 0cbe 64a0 68bd
00000360: f1b8 87bd c307 88bd b7fa bbbc e890 b0bd
00000370: 01a3 c9bd 546d aabd 6029 823b dee9 223d
00000380: 50f7 5c3d 5e9e 0cbe 0b07 a83d da35 043e
00000390: f4fd 07bd 9775 983d 31d5 483d 339a bcbd
000003a0: 97da 0f3c adae 113e 12a4 213d 97aa 0fbe
000003b0: 838c 87bd 0322 da3d b862 13be 5143 023e
000003c0: 97b9 d13d 1b65 f9bd 002b b33d 24c9 0b3e
000003d0: 598a 26be 8440 023d e1cb 993b dae6 a03d
000003e0: 2502 0c3e d8fc f43c a401 e9bd a94a 1f3d
000003f0: 419c f53d eb66 b1bd 9c4a 71bd d8be a23c

layer2.bias f4 [100]
0.38121003 0.07991697 0.09450442 0.008081437 -0.12991332 0.03362197 0.071024515 -0.10422596
-0.08142041 0.33573794 -0.14936069 0.39506897 -0.13650513 0.008418528 0.11231383 -0.117313735
0.010123393 0.29695487 -0.00083778106 -0.0053079086 0.046615392 -0.10917624 0.07066765 -0.11919021
0.10284751 0.02996592 -0.11340088 -0.051803306 -0.09369655 -0.02600125 0.086399056 -0.11888637
-0.056980483 0.0909534 0.056746107 0.03623375 -0.10273416 0.41883123 -0.099410646 -0.05214319
0.060219668 -0.08994292 -0.06771463 -0.031106286 -0.062498365 -0.13947786 0.10461769 -0.018124148
0.44123903 0.40254518 -0.10735078 -0.016861387 -0.1010591 -0.030420775 -0.09612468 -0.08853395
-0.06042029 0.44849962 -0.050355524 -0.0042628497 -0.039190177 0.44204125 0.05532788 -0.030714894
-0.022062067 0.04459094 0.09966846 0.42290854 -0.042234644 -0.068460695 0.05237446 0.06922097
-0.0128607005 -0.065914996 -0.11339979 -0.07606593 0.1313273 0.04602771 0.08649302 -0.06634565
0.08540671 -0.07153438 -0.07961629 0.07594234 0.08567794 0.090463154 -0.096631296 0.07105152
0.42968765 -0.07112419 0.11412208 -0.019928759 0.0861043 -0.120123714 0.073434666 -0.06279193
0.06687609 0.38683504 -0.044195194 -0.00093970983
00000000: f62d c33e 82ab a33d 898b c13d 0168 043c
00000010: ff07 05be 31b7 093d 4d75 913d 6c74 d5bd
00000020: bebf a6bd d8e5 ab3e 02f2 18be 7b46 ca3e
00000030: 00c8 0bbe deed 093c cb04 e63d 2f42 f0bd
00000040: 96dc 253c 780a 983e 899e 5bba f7ed adbb
00000050: c8ef 3e3d cb97 dfbd 33ba 903d ff19 f4bd
00000060: b7a1 d23d 177b f53c b83e e8bd b42f 54bd
00000070: fae3 bfbd 9300 d5bc fdf1 b03d b27a f3bd
00000080: 5e64 69bd c745 ba3d 9b6e 683d d769 143d
00000090: 4a66 d2bd 0c71 d63e cf97 cbbd 1994 55bd
000000a0: e6a8 763d fe33 b8bd f8ad 8abd 9cd2 febc
000000b0: 49fe 7fbd 49d3 0ebe cd41 d63d 1879 94bc
000000c0: 15ea e13e 671a ce3e bada dbbd e420 8abc
000000d0: 13f8 cebd fd34 f9bc 04dd c4bd 4a51 b5bd
000000e0: 447b 77bd bea1 e53e 9841 4ebd 60af 8bbb
000000f0: e185 20bd 3b53 e23e 7d9f 623d cd9d fbbc
00000100: 82bb b4bc fda4 363d fa1e cc3d 7887 d83e
00000110: 3cfe 2cbd 1f35 8cbd 9a86 563d b9c3 8d3d
00000120: b0b5 52bc 71fe 86bd 263e e8bd 74c8 9bbd
00000130: aa7a 063e 8d87 3c3d 4123 b13d 3ae0 87bd
00000140: b7e9 ae3d 9e80 92bd de0d a3bd a887 9b3d
00000150: ea77 af3d bf44 b93d a1e6 c5bd 7683 913d
00000160: 0500 dc3e 8fa9 91bd d6b8 e93d a341 a3bc
00000170: 7457 b03d 6c03 f6bd ea64 963d 0e99 80bd
00000180: 55f6 883d 3e0f c63e 0506 35bd dc56 76ba

layer3.weight f4 [1, 100]
0.43989822 -0.028278105 -0.098307796 -0.036890283 -0.005465626 0.05009206 -0.08056206 0.073183425
-0.04910686 0.5065815 -0.052610498 0.48396608 0.08463741 -0.15808538 -0.1370026 -0.06269745
0.0010771317 0.43680075 -0.06360927 -0.0056122253 0.06745253 0.02467499 0.045706883 -0.021668999
-0.07104462 -0.12407122 0.011358105 -0.163613 0.089567654 -0.07402613 -0.08504446 0.06507813
-0.065006055 0.071378335 -0.07321336 0.045708295 0.037924655 0.49854225 -0.008113958 -0.12342118
-0.027698312 0.04543415 0.06182165 0.0017347723 0.05428738 0.0104108155 -0.11054192 -0.043943573
0.4105024 0.51387006 -0.0051902384 -0.016143396 0.0040624123 -0.03918235 0.0525902 -0.10000918
0.09946986 0.44357538 0.033337533 -0.16037656 0.061193977 0.45971787 -0.056276206 -0.0056740358
-0.060753126 -0.13140146 -0.08774105 0.46077475 -0.118147336 -0.14712018 -0.0838658 -0.03453993
-0.0057943687 0.09788466 0.057954602 0.0076198243 -0.04428895 -0.018592723 -0.07617973 -0.00627964
-0.05929997 0.060724594 -0.06857039 -0.111514784 -0.08022722 -0.065456904 -0.09991555 0.0041813506
0.41081703 -0.106233545 -0.06300173 -0.10283848 0.03440563 -0.06649649 -0.1413697 0.016012365
-0.12170137 0.43432054 -0.06650657 0.045861106
00000000: 573a e13e 7ca7 e7bc 9955 c9bd 441a 17bd
00000010: fe18 b3bb 552d 4d3d b9fd a4bd 31e1 953d
00000020: 4624 49bd 53af 013f 1b7e 57bd 67ca f73e
00000030: 6156 ad3d 22e1 21be 694a 0cbe 8567 80bd
00000040: 8b2e 8d3a 59a4 df3e 9445 82bd c2e6 b7bb
00000050: 8d24 8a3d 3423 ca3c 2437 3b3d 2f83 b1bc
00000060: d77f 91bd 0d19 febd 5817 3a3c 2b8a 27be
00000070: 3f6f b73d 039b 97bd ca2b aebd af47 853d
00000080: e521 85bd ce2e 923d e3f0 95bd 9f38 3b3d
00000090: e256 1b3d ee40 ff3e 68f0 04bc 3ec4 fcbd
000000a0: 92e7 e2bc 2919 3a3d b338 7d3d 4d61 e33a
000000b0: 725c 5e3d 2092 2a3c cd63 e2bd 2dfe 33bd
000000c0: 5f2d d23e fd8c 033f e012 aabb 283f 84bc
000000d0: fc1d 853b ac7d 20bd d268 573d 9dd1 ccbd
000000e0: dbb6 cb3d 501c e33e f08c 083d c139 24be
000000f0: 89a6 7a3d 2460 eb3e e181 66bd 43ed b9bb
00000100: 45d8 78bd 1b8e 06be 94b1 b3bd abea eb3e
00000110: 3bf7 f1bd aca6 16be d5c1 abbd be79 0dbd
00000120: b0de bdbb c177 c83d ce61 6d3d b8af f93b
00000130: 5468 35bd c44f 98bc 1e04 9cbd 70c5 cdbb
00000140: 86e4 72bd 5aba 783d a26e 8cbd dd61 e4bd
00000150: 2b4e a4bd 450e 86bd 86a0 ccbd b603 893b
00000160: 9c56 d23e f990 d9bd 0d07 81bd fb9c d2bd
00000170: ebec 0c3d 502f 88bd 38c3 10be 5d2c 833c
00000180: 913e f9bd 435f de3e 9934 88bd dbd8 3b3d
